RPPG_Jupyter_notebook/FLASK/deepfake_backend/processors/video/models/lipsync_deepfake_model.pth (torch, 261581 bytes, 12 tensors)

lip_lstm.weight_ih_l0 f4 [256, 40]
000000 fb 5f de 3d d6 de f4 3d 2f 25 33 3d 8b 8e f0 3d
       0.108581506 0.11956565 0.043736633 0.11745938
000010 b6 d0 d3 3b 3b b4 8f bb da 1a 37 3d d4 62 6c bd
       0.0064640893 -0.004385499 0.044703342 -0.057711437
000020 fc 25 db bd 4a ba c5 bd db 63 8c 3d 54 2a e1 bd
       -0.10700604 -0.096546724 0.068549834 -0.109944016
000030 1b 16 00 bc ab a5 c3 bd b1 87 ed bd 54 c5 48 3d
       -0.00781777 -0.09553083 -0.11598147 0.04901631
000040 78 af 96 bc bd a5 a9 3d e8 59 bd 3d 94 89 bc bd
       -0.018394217 0.08283565 0.09245664 -0.092059284
000050 e0 45 35 3c 52 6a c4 bd 21 19 96 bd 8c 4a 9e 3c
       0.011064023 -0.095905915 -0.07329012 0.019322656
000060 e1 58 e7 3a a4 d0 e3 bd 1f 9e 9b 3d 57 61 bd 3d
       0.0017650389 -0.111237794 0.075985186 0.09247082
000070 cb 1a b5 3b 7e 4b 63 3c bf fc b6 3d 38 8f a2 bd
       0.0055268756 0.013872979 0.08934926 -0.07937473
000080 d4 ff 74 bd b8 78 b4 bd 5c 0c 5d bd 18 4a 49 3c
       -0.05981429 -0.08812088 -0.053966865 0.012285732
000090 cf 33 52 bd 8a cf 59 3c 25 b9 3b 3d 1d 84 e4 3d
       -0.05131894 0.01329411 0.045830864 0.11158011
0000a0 0e 16 b1 bd 45 de 7e bd a6 33 8d bc 6e 6b 8f bd
       -0.08646785 -0.06222369 -0.017236542 -0.070029125
0000b0 d8 9b 93 bd c7 c9 e4 3d 5b f9 dc 3d 25 9b dd 3d
       -0.07207459 0.111712985 0.10789748 0.10820607
0000c0 5e a9 8f bc a1 0b 88 bd 8f 70 97 3d 11 35 d0 3d
       -0.017536815 -0.06642843 0.07394516 0.101663716
0000d0 14 b2 21 3d 8d 77 8b 3d 14 b4 9b bc 73 98 05 bc
       0.03947647 0.06809912 -0.019006766 -0.0081540225
0000e0 08 1b fb bd 87 4d 92 bd ec e5 a4 bc 71 6d b4 bd
       -0.12261015 -0.071436934 -0.020129167 -0.08809937
0000f0 53 29 11 3d aa 69 85 3c 26 0b 88 bd 15 5f 44 3d
       0.0354398 0.016285736 -0.066427514 0.04794224
000100 e0 77 04 bd be 63 ad 3d b0 b8 e4 3c 3c aa 8e 3c
       -0.032340884 0.0846629 0.027920097 0.017415158
000110 8b cf 92 bc c4 a1 6a bd 28 8f d3 3d da e6 57 bd
       -0.01792123 -0.057283178 0.10330039 -0.05271039
000120 b3 01 e9 3d d5 9f 5f 3d 1c 21 a1 3d d2 55 ef 3d
       0.11377277 0.054595787 0.07867643 0.11686291
000130 f9 33 b9 3b 93 53 c1 bd dd 5e e6 3c da c2 72 3d
       0.0056519476 -0.09439769 0.028121406 0.059267856
000140 88 4f 47 bd 81 17 d7 3d 59 c9 b2 3d 87 d9 05 be
       -0.04865983 0.1050253 0.0872981 -0.13071261
000150 9e 7c ed bd c4 19 50 bc 12 99 9b 3c 1b 95 f5 bc
       -0.115960345 -0.0127014555 0.018993888 -0.029978326
000160 23 b2 28 3d 2b b3 e5 bd 96 d8 a6 3d ad db ea bc
       0.04118551 -0.11215814 0.08146779 -0.028669203
000170 7b 61 16 3d 13 af 9d 3b 00 b2 0c be f1 c4 2b 3c
       0.03671406 0.0048121302 -0.13739777 0.010483966
000180 3f bf 28 bd ee 9c c1 bc 3e b0 b2 3d ff d1 bb 3d
       -0.04119801 -0.0236344 0.08725022 0.09170913
000190 80 3f 32 3a 92 1d 67 3d fb fc b6 bd bb 17 29 3d
       0.00067996234 0.056424685 -0.08934971 0.041282397
0001a0 b8 8e 90 bb c6 5f d6 bc 06 da 42 3d 68 8d 3d bd
       -0.0044115447 -0.026168715 0.047571205 -0.046277434
0001b0 f6 90 1e bd 0f f8 d0 3d b2 a8 0a bd 37 1d 92 bd
       -0.038712464 0.102035634 -0.033852287 -0.071344785
0001c0 00 d6 01 3d 48 65 e7 bd 9b 50 d0 3d 9c 51 35 bd
       0.031698227 -0.11298615 0.10171624 -0.044267282
0001d0 2a 97 cf bd 3f 96 e1 3d d6 93 06 3c 3d ab ba bd
       -0.10136254 0.11014985 0.008213958 -0.09114692
0001e0 d7 63 4a bd d6 96 e8 bd 1e 9d 6b bc 18 0a 78 3d
       -0.04941162 -0.11356895 -0.014380721 0.0605565
0001f0 7b 87 04 be 1f de b3 3d 26 79 d2 3d 2f e9 22 3d
       -0.12942307 0.087826006 0.102770135 0.039773162
000200 d7 45 54 3d a1 40 15 bd 7c 80 90 3d 1e 93 ba bd
       0.051824417 -0.036438588 0.070557564 -0.091100916
000210 66 f6 ac bd 64 f4 fe bc c1 c6 a7 bd e8 d3 b8 bd
       -0.08445434 -0.031122394 -0.08192206 -0.09024793
000220 f7 ac 2e 3d 51 4d f9 3d 4c 58 66 bd 3f 1f 6b bd
       0.04264542 0.1217295 -0.05623655 -0.057402845
000230 4d 48 ed bd 91 12 64 3d a8 9e 7a bd 08 b3 2c 3d
       -0.11586056 0.05568177 -0.061186463 0.042162925
000240 01 00 96 3d 73 f1 44 bd 78 0d 96 bd 85 92 8f bc
       0.073242195 -0.048081826 -0.07326788 -0.01752592
000250 e6 7a bc 3d 8d 96 91 3d d0 5a ea bd e9 d6 ad 3c
       0.092031285 0.071087934 -0.11443102 0.021220641
000260 f2 29 14 bd 86 71 f4 3c 47 5b fd 3c ac 35 47 bb
       -0.036172815 0.029839288 0.030927313 -0.0030396981
000270 f0 e7 d9 bd f0 2b a0 bd ac 17 94 3d 22 7b a3 3d
       -0.10639942 -0.078208804 0.072310776 0.0798247
000280 7d 2d d1 bb cd fa 54 bd 95 46 eb 3d 22 8b 6e 3d
       -0.0063835965 -0.051996995 0.11488072 0.058238156
000290 b0 8d 3c 3d 3c 7d b9 bd 4f e3 cb bd da 9e 79 bd
       0.04603356 -0.0905709 -0.09955465 -0.06094251
0002a0 52 d0 c4 bd 02 8e b3 bd 0a 4e d7 bd 61 ea f3 3c
       -0.096100464 -0.0876732 -0.10512932 0.029774847
0002b0 5c 17 9c bc 22 a8 c4 3d 7d 09 d3 3d e0 ec c1 3d
       -0.019054107 0.09602381 0.10304544 0.094690084
0002c0 3e ab 1f 3d d4 c7 3a bc e0 46 6b bd e8 c0 f9 3c
       0.03898167 -0.011400182 -0.05744064 0.030487493
0002d0 61 95 cd 3d eb 3e af 3d 2d 75 04 bd a7 e1 c9 bd
       0.100382574 0.085569225 -0.03233831 -0.09857493
0002e0 be fa b1 3d 44 2b d2 bd b9 2e 65 3d 75 93 46 bd
       0.086904034 -0.102621585 0.05595276 -0.04848047
0002f0 73 de e1 bc 3c f8 8c bc 6d d6 a3 bd dc 47 af 3d
       -0.027571892 -0.017208211 -0.07999883 0.08558628
000300 7b d2 b2 bc d3 78 d7 3d 46 1f 98 3d cd 4b 7b bd
       -0.02182888 0.10521092 0.0742784 -0.061351586
000310 4e 35 a9 3d 61 d0 3a ba f8 29 0c 3d 1a f3 f5 3d
       0.0826212 -0.0007126388 0.034219712 0.120092586
000320 81 76 df bd 3b e1 ed bd 08 d5 c4 3d 63 ef 9c bd
       -0.10911275 -0.11615225 0.09610945 -0.07662847
000330 c2 51 57 3d 3a 3f c4 bd 9a c3 f7 bd 48 4d e7 bc
       0.052568205 -0.09582372 -0.12097855 -0.028235093
000340 e5 87 be bc 3b ea a7 bd 5f 78 23 bb 01 2e 31 3d
       -0.023258159 -0.08198973 -0.0024943573 0.043256763
000350 d4 b8 08 bd 62 03 e2 3d 12 1b e0 3d 11 6d 10 bd
       -0.03337939 0.110358015 0.10942663 -0.035260264
000360 3b 02 70 bc 87 61 8b 3d 44 e1 3b 3d 14 16 7d bd
       -0.014648969 0.06805711 0.045869127 -0.061788633
000370 c4 96 f4 3d ee 93 cc bd 1e 97 f0 bd f6 d3 05 3b
       0.11942819 -0.09989153 -0.11747573 0.0020420528
000380 fc b5 6f 3d 0f 35 d8 bd 14 52 9b bd ba 94 e1 bd
       0.058523163 -0.10556995 -0.075840145 -0.110146955
000390 ec 0e 08 be 87 d1 05 3d a6 99 ec 3c 1f be 4a 3c
       -0.13286942 0.032670524 0.028881859 0.01237443
0003a0 bb ae 1f bd 97 b3 58 3c 49 21 94 3d 7e 39 e0 3d
       -0.038984995 0.013226411 0.07232911 0.10948466
0003b0 72 77 f8 3b b6 d2 4e bd 47 c7 b3 3d c6 65 45 3c
       0.0075825984 -0.05049392 0.087782435 0.01204819
0003c0 bb 78 cc 3d 9a fa 5f bd f2 b7 a6 3b 4a 54 f5 bd
       0.09983965 -0.05468235 0.005087846 -0.119789675
0003d0 06 7f b4 bd 95 f2 b0 3d 43 42 c5 bd 07 e0 71 bc
       -0.0881329 0.08640019 -0.09631779 -0.014762885
0003e0 f1 10 9d bc 44 5b cc 3d 4e 07 98 bd 8e fe e9 bd
       -0.019173117 0.09978345 -0.07423268 -0.114255056
0003f0 12 07 e1 3d a3 a9 1e 3d 88 c0 b7 3d 9a 92 89 3d
       0.10987677 0.038735997 0.08972269 0.06717415

lip_lstm.weight_hh_l0 f4 [256, 64]
000000 3d ef c9 bd 33 53 87 3d 5b 42 fe bd 4a d6 50 3d
       -0.09860084 0.06607666 -0.12415 0.050985612
000010 b9 18 9f bd 65 e1 a5 bd 4f 32 a6 bd e4 07 d8 3c
       -0.07768387 -0.08099631 -0.08115064 0.02637095
000020 42 37 c9 3d 24 ab dc bd 77 22 bc 3d 19 4e ee bd
       0.09824993 -0.1077483 0.09186261 -0.1163599
000030 68 62 0b bd 33 6e c8 3d 05 a9 a7 bc 37 74 bb 3d
       -0.034029394 0.09786644 -0.020466337 0.091530256
000040 4e ee b1 bc 16 55 4b bd 46 66 34 3d cd 73 0c 3c
       -0.021720078 -0.04964169 0.044042848 0.008572531
000050 6d b0 15 bb e6 c5 51 3d 1e 5b 80 bd 05 6f 55 bc
       -0.0022840754 0.05121412 -0.06267379 -0.013026957
000060 dc 68 dd bd 5a 50 ef bd 56 17 75 3d da e8 76 bc
       -0.10811016 -0.11685248 0.059836708 -0.015070165
000070 80 ab f3 3c 67 53 d3 3d 10 ac ce 3d c2 ef ce bd
       0.029744864 0.10318642 0.10091412 -0.10104324
000080 26 d5 26 bd 60 ad c0 3d 35 02 90 3d e0 ce a4 3d
       -0.040730618 0.09408069 0.07031671 0.08047271
000090 bd ed 95 3d a9 05 70 3d 29 8a b6 bc b0 0b 41 3d
       0.073207356 0.058599148 -0.022282677 0.047130287
0000a0 2a f6 e5 bd 07 35 97 bd 6b 7d 44 bd 20 c4 2b 3c
       -0.11228593 -0.07383161 -0.04797117 0.010483772
0000b0 20 96 de bd eb f3 d3 3d 48 11 54 bd 57 c9 b9 3d
       -0.10868478 0.10349258 -0.051774293 0.09071606
0000c0 55 c9 59 3d 17 fd 77 3d 9e ee a1 bd 4d 86 e3 bd
       0.05317052 0.0605441 -0.07906841 -0.111096
0000d0 48 99 f5 3d 1f 0e 6f 3d 91 0e 5b 3d d1 2a 2f 3d
       0.11992127 0.058363076 0.05348069 0.042765442
0000e0 c4 a8 d0 bc e7 fc c6 3c 57 15 4a 3d 8d ac 72 3d
       -0.025471099 0.024290515 0.049336758 0.05924659
0000f0 28 32 9b 3d a2 54 80 bd 6d 59 e6 3d 75 25 ab bd
       0.07577926 -0.062661424 0.11247525 -0.08356754
000100 a9 ea 7c bd df be 48 3d 37 a3 02 be 99 ff 61 bd
       -0.061747227 0.049010154 -0.12757574 -0.055175398
000110 3b 17 b4 3d 4f 14 ef bc 6b 27 d2 bd 32 f6 32 3d
       0.08793493 -0.029184489 -0.10261425 0.04369182
000120 ef 50 e1 bb 58 7e f9 bd f2 01 05 be 50 cb e1 3b
       -0.006876103 -0.12182301 -0.12989023 0.006890692
000130 a2 6d a6 bd 11 5d b0 3c f5 6f 5d 3c 85 b3 d0 bb
       -0.081263795 0.021528753 0.013515462 -0.0063690566
000140 1a 5e ef 3b 53 b9 a6 3d 32 2e 95 bc 8f 68 fc bc
       0.007304919 0.081408165 -0.018210504 -0.030811576
000150 86 97 3f bd ea 53 b7 bd e2 dc 2c bd 4a ab fb 3d
       -0.046775363 -0.08951552 -0.042202838 0.1228853
000160 c6 4c 82 bd ac f3 e7 3d 95 5a 23 bb b5 5f 64 3d
       -0.063622996 0.113257736 -0.0024925817 0.055755336
000170 84 d3 94 bc eb 94 84 3c db 6e d0 bd 49 3c a9 bd
       -0.018167265 0.01618429 -0.10177394 -0.082634516
000180 8d 90 72 3c 08 69 1a 3d 6b 77 c9 bc e0 2a 02 bd
       0.014804971 0.03769782 -0.024593076 -0.03177917
000190 8e df 97 3d 84 d0 18 3d 46 f4 a6 bc 8d ee 72 3d
       0.074156865 0.03730823 -0.02038015 0.05930953
0001a0 e7 63 f7 bc bb 38 cd bd 7d 91 e5 3d 16 bf da bc
       -0.030199004 -0.10020586 0.1120939 -0.026702445
0001b0 f9 0f ed 3d c1 93 e7 3d e1 67 b3 bc af ec 49 bb
       0.11575312 0.11307479 -0.02190012 -0.003081124
0001c0 08 32 87 bc dc a8 de bd b1 ec e5 bd fa 94 8d 3d
       -0.016503349 -0.10872051 -0.11226786 0.06913181
0001d0 8e 53 98 bb 1c a3 e6 bd 70 40 80 bd ec 25 56 bc
       -0.0046486324 -0.112615794 -0.062622905 -0.013070565
0001e0 3b 0c 2a bd 72 ed 40 bc 6a d0 ec 3c e6 03 52 3d
       -0.04151557 -0.011775361 0.028907973 0.05127325
0001f0 60 72 f3 bd dd 67 3f 3d e4 8e 9c 3d d7 68 bb bc
       -0.1188705 0.04672991 0.07644442 -0.02287714
000200 bb 0a 03 3e c2 f0 a3 bd 12 0a cd bc 8d dc 71 bc
       0.12797062 -0.08004905 -0.025029216 -0.014762056
000210 a0 06 35 3d fa 4a 91 bd 40 42 7d bd 4f f6 a5 bd
       0.04419577 -0.07094379 -0.06183076 -0.0810362
000220 e7 c2 c8 bd e1 75 e4 3d 37 77 0c 3e 1f e9 d4 bd
       -0.098028 0.11155296 0.13717352 -0.10396027
000230 98 a6 aa 3b 63 4d c7 3d d5 09 ae 3c 9d 31 18 3c
       0.005207848 0.09731557 0.021244923 0.0092891725
000240 04 18 02 be 98 43 98 3d c4 76 64 3d 69 de e1 3a
       -0.12704474 0.074347675 0.055777326 0.0017232421
000250 51 48 15 3d 1e 46 fa bd 5f b6 16 3d dd 04 0e be
       0.03644592 -0.12220405 0.036795016 -0.13869043
000260 67 ff cd bd e5 c7 ea 3d d3 6a b2 bd 93 92 24 bd
       -0.1005848 0.11463908 -0.08711781 -0.040178847
000270 8d 80 4b 3d d2 80 94 3d 29 6c a6 bd 37 c2 da 3d
       0.049683142 0.07251133 -0.08126099 0.10681575
000280 c5 7c ad 3b 5a b0 fd 3d f1 7c 14 be e7 4d ad bc
       0.0052944147 0.12387152 -0.14500786 -0.02115531
000290 31 12 dd 3d 88 52 d5 bd bd 59 9c bd 32 2b be bc
       0.10794485 -0.10416132 -0.07634304 -0.023213957
0002a0 61 09 dd 3d 7d f9 2d bb 73 9e e3 3c a6 53 f7 3b
       0.107928045 -0.0026546412 0.027785515 0.0075478135
0002b0 5d d6 30 3c 3c 0e 66 bd d2 40 82 3d 3e 33 80 3d
       0.010793296 -0.05616592 0.0636002 0.06259774
0002c0 b3 15 ae 3d af 65 82 3d 6c 21 31 3d 86 1e d9 3d
       0.085002325 0.06367051 0.043244764 0.10601525
0002d0 bc da 8f 3d 35 4e d7 3b 5a e9 57 bb 0e 30 1f bd
       0.07024142 0.0065706023 -0.0032945485 -0.038864188
0002e0 f1 58 7f 3d 68 f5 74 bd 33 59 cf 3a 94 c9 95 3d
       0.06234068 -0.05980435 0.001581943 0.073138386
0002f0 62 80 24 bc 9f c3 64 3c bf 70 2b bd f0 fa 0b be
       -0.0100403745 0.013962655 -0.04185557 -0.13669944
000300 11 91 58 3d d7 6b f4 bd 54 64 dc 3d e5 8a a8 3c
       0.05287272 -0.11934631 0.107613236 0.020574043
000310 a2 c6 83 3c 94 40 47 3d 71 c1 cd bc 2f bc e2 3c
       0.016085926 0.04864557 -0.025116654 0.027677624
000320 2e 3f 21 3d 24 5f a1 3d 0f ba 5a bd 67 81 72 bd
       0.039366893 0.07879475 -0.053400096 -0.05920544
000330 32 76 bc bc 08 f4 36 bc 53 21 87 bd 62 c9 2c bd
       -0.023005579 -0.01116658 -0.06598153 -0.04218424
000340 23 ce 82 bb 13 a3 ad bc 5a e4 a0 3d 20 f9 ae bd
       -0.0039918586 -0.021195924 0.078560546 -0.085436106
000350 17 63 09 be d8 67 3b bd a7 0d a3 bd ca a6 80 bd
       -0.13416706 -0.04575333 -0.07961588 -0.062818125
000360 68 07 ba ba 75 7a 01 bd 6d a6 e8 3d b3 4e 80 3d
       -0.0014192881 -0.031610925 0.11359868 0.06265011
000370 f9 16 8d bc 89 02 8c bc c8 07 ad bd 40 ed 23 3d
       -0.017222868 -0.017091053 -0.0844875 0.04002118
000380 85 d3 96 bd 3c 76 9e 3c 3a ba ee 3d 60 2f 18 3d
       -0.07364563 0.019343488 0.11656614 0.037154555
000390 92 a8 6f bd d9 76 24 3d d6 23 7b 3d 94 2e be bd
       -0.05851037 0.040152404 0.061313473 -0.09286228
0003a0 35 76 d9 bd a6 29 cf 3d 76 e2 83 3d ff 3c 36 3d
       -0.10618249 0.10115366 0.06439678 0.044491764
0003b0 04 1b fb bd 37 0e a0 bc f9 2b a5 3d 84 01 87 3d
       -0.12261012 -0.019538028 0.08065028 0.06592086
0003c0 18 78 84 3d d2 c5 d7 ba bf 5f 87 3c c3 fd 56 3d
       0.064682186 -0.0016462153 0.016525147 0.0524881
0003d0 95 4c ed 3d 9e 05 2d bb 69 d6 32 bd 1d 21 da bd
       0.115868725 -0.0026401053 -0.04366151 -0.10650847
0003e0 a2 ca 22 3d 64 ae 8b bd ed e7 9b 3d 39 f3 0c bd
       0.039744027 -0.06820372 0.07612596 -0.034411643
0003f0 73 4f 80 bc 75 d3 57 bd 1a 15 61 3d 72 22 b4 3d
       -0.015662884 -0.052691896 0.054951765 0.087956324

lip_lstm.bias_ih_l0 f4 [256]
000000 2b a4 1f 3c 0c b9 d2 bd 54 e4 c2 3d ce 00 0d be
       0.009743731 -0.10289201 0.095162064 -0.13769838
000010 7d c4 e8 bd b4 3b b4 3d 1b 29 67 bd 50 9f 85 bd
       -0.11365602 0.0880045 -0.056435686 -0.06524527
000020 a3 e7 d1 3d 91 ac 9b bc 63 1a 08 3e 81 ca 80 3d
       0.10249259 -0.019003185 0.13291316 0.062886246
000030 a0 d4 87 3d a2 67 80 3d 27 62 80 3d 54 02 1b bc
       0.06632352 0.062697664 0.06268721 -0.009461004
000040 30 50 9e bd 4e 74 c0 3b b1 8f 0a 3d e1 3e c3 bd
       -0.07730138 0.0058732396 0.03382844 -0.095334776
000050 1e 82 88 3d f5 7c e4 bd c5 a7 81 bd 7d 9e 87 3d
       0.06665443 -0.11156646 -0.063308276 0.06622026
000060 13 06 2e bd a3 72 c9 bb e3 17 d6 bd f1 a8 b5 3d
       -0.04248626 -0.006147699 -0.10453775 0.08870114
000070 3d 59 c0 3d f6 78 3a bc 90 96 d5 3d 25 dd 93 bd
       0.09392021 -0.011381378 0.10429108 -0.07219914
000080 e3 8a d6 3d 96 87 0d 3d 5b 41 21 3d 8a 04 23 3d
       0.10475709 0.034553133 0.03936897 0.03979925
000090 eb bd fb bc f0 8d e8 3d dc 28 5b 3c bc aa e6 bc
       -0.030730208 0.113551974 0.013376441 -0.028157584
0000a0 28 20 59 3d 60 82 cc 3d 43 22 af 3c 43 b0 74 3d
       0.053009182 0.099858046 0.021378642 0.05973841
0000b0 e8 90 04 3e 82 85 b1 bd 11 04 9d 3d 8f 8f 32 bd
       0.12945902 -0.08668043 0.07666791 -0.04359394
0000c0 80 e0 35 3c 77 4f 3c bc 97 6a 4c bd c2 be d8 3d
       0.011100888 -0.011493555 -0.04990634 0.10583259
0000d0 0d bf ee 3b 9d c8 f5 3d 97 db e5 bc e4 83 8b bd
       0.0072859586 0.120011546 -0.02805881 -0.068122655
0000e0 55 4d 1e 3d 0e 8a 9f 3d 5f ab a3 3c be 04 83 bd
       0.03864797 0.07790004 0.019979177 -0.06397389
0000f0 0e 3f 55 bc 35 07 23 bd 3e a6 62 3d 64 27 c9 3d
       -0.013015522 -0.039801795 0.055334322 0.09821966
000100 21 01 f5 bd 6f d0 2c 3c 0d 0a 60 3c 6c 65 c8 3d
       -0.11963106 0.010547741 0.013674271 0.0978497
000110 ee 1d d9 3d bc e2 a4 3c d6 0e eb 3d 78 f5 9f bd
       0.10601412 0.020127647 0.11477439 -0.07810491
000120 23 84 59 3d 7a ab d5 bd f0 04 81 bd 5f 76 8b 3d
       0.05310453 -0.10433097 -0.0629977 0.06809687
000130 3e 9a 1a bc a1 87 e1 bd 43 b7 82 bd e7 98 b3 3d
       -0.009436188 -0.11012197 -0.06382611 0.08769398
000140 f0 fc af 3d d4 15 43 bd 07 30 aa bb 4a eb f4 3d
       0.08593166 -0.04762824 -0.0051937136 0.1195894
000150 32 9f 44 bc ea c8 c3 bc 4d b2 f9 3d 0b f4 9b bc
       -0.012000846 -0.023899514 0.12192211 -0.019037267
000160 e2 6f c7 3c f6 a0 88 bd 3f a5 0d 3d 23 5a b8 bd
       0.024345342 -0.06671326 0.03458142 -0.09001567
000170 ad 98 a4 bd 0a 25 1a bd 6c 31 e6 3d 9a 1b 57 3d
       -0.08036933 -0.03763298 0.11239895 0.052516557
000180 7e c8 8d 3d 36 71 69 bd 5e 5c 00 3d 9f 64 76 3c
       0.069230065 -0.056992732 0.03133809 0.015038638
000190 0d 7f df 3c 37 50 9a 3d e3 48 07 bd 98 a3 07 3e
       0.027282262 0.07534831 -0.033028495 0.13246
0001a0 74 e1 5f 3b c5 bc 26 3d d1 56 ec bc 46 0d 70 bd
       0.003416148 0.04070737 -0.028849991 -0.05860641
0001b0 75 fe b0 bd 95 ce 3f bc 9f ca 69 3d 08 82 13 3e
       -0.08642284 -0.011706968 0.057078 0.14405072
0001c0 5e 18 c3 bd 37 19 24 bc cf ce 41 3c 74 4b 09 3c
       -0.09526132 -0.010015777 0.011829092 0.008379806
0001d0 09 90 c9 bd da 4b 02 3e 12 a9 a2 3d 31 f0 7d bc
       -0.09841926 0.12724248 0.07942404 -0.015499161
0001e0 0e ba f3 3d b3 91 1b 3e 1b 3a 60 3d c5 d2 74 bd
       0.119007215 0.15192299 0.054742914 -0.059771318
0001f0 e5 b3 fb 3c 06 a8 fb bd dc cc 47 3b 8c 07 86 bd
       0.030725429 -0.12287907 0.0030487096 -0.06544408
000200 b6 a4 95 3c 17 97 8b 3c fb a5 d7 3d 27 91 c1 3d
       0.018267017 0.017039819 0.10529705 0.09451514
000210 c9 26 e0 bd f0 6a 17 bd 0e af d2 3d 26 f3 39 bc
       -0.10944898 -0.036967218 0.10287295 -0.011349475
000220 60 d7 ea 3d 24 05 05 bd 9a 77 ad bd 00 fe ef 3d
       0.11466861 -0.032475606 -0.08470078 0.117183685
000230 3d 8c 5a bd 2f a1 0a bd 88 d5 da bd a4 a8 56 bd
       -0.053356398 -0.033845123 -0.10685259 -0.052406922
000240 fc d1 e1 3d e6 ac 73 3d f5 dc e3 3c 5d b2 f5 3c
       0.110263795 0.05949106 0.027815321 0.029992277
000250 bd 02 ee 3d 98 1d 8e 3b 7e 7a b2 3d 2b 9a 96 bb
       0.11621616 0.004337024 0.0871477 -0.004596015
000260 e3 98 46 bd 1c 36 a4 bb 62 7d 8c bd 4f e9 d7 3d
       -0.048485648 -0.005011333 -0.068598524 0.10542547
000270 04 35 2e bd be 9a 45 bd ab c7 06 be 2b ff cf bd
       -0.04253103 -0.048243277 -0.13162105 -0.10156091
000280 e1 58 13 3d 47 8d af 3c c9 cb fb bd 14 9a ce 3d
       0.035973433 0.021429671 -0.12294728 0.10087982
000290 7f 80 3e bd b9 e9 70 3c c8 13 ff 3d 67 72 c8 3d
       -0.046509262 0.014704161 0.12454945 0.097874455
0002a0 d8 2d 5e bd 24 28 db bd a1 06 65 3d 69 b0 41 3d
       -0.05424294 -0.107010156 0.055914525 0.04728738
0002b0 5b 74 87 3d 7a b8 50 3d 01 16 be bd e3 d0 a6 bc
       0.0661399 0.05095718 -0.09281541 -0.020363277
0002c0 9a 15 cf 3d 05 01 b5 bd 23 03 fa bb 69 69 77 3d
       0.10111542 -0.08838085 -0.0076297685 0.06040326
0002d0 fa 10 b9 3d d0 a2 9f bc cc ab cd bd 0b 5e 23 3d
       0.09036441 -0.019486815 -0.10042533 0.03988461
0002e0 a1 48 f2 bd 89 5a d6 3d 7d dc e2 3d 7f 02 c4 3d
       -0.11830259 0.10466487 0.11077211 0.095707886
0002f0 2e 6d db bd 2b e5 ee bd f5 dc 93 3d 48 c6 03 3e
       -0.10714184 -0.11664804 0.072198786 0.12868607
000300 27 07 0e 3c b8 db fb bd bf f2 72 3c 3d 33 0c be
       0.008668697 -0.122977674 0.014828383 -0.13691421
000310 0d 47 f2 3d 79 c9 98 3d cc 8e ae 3c 28 03 c5 bd
       0.11829958 0.07460303 0.021308325 -0.09619743
000320 38 f3 a1 3d 90 46 9c bd b0 19 db 3d 9d 3a 55 3b
       0.079077184 -0.07630646 0.10698259 0.0032536157
000330 a5 54 f5 3d 01 6b f0 3d 52 bf ac 3d f0 f7 3e bc
       0.11979035 0.117391594 0.08434929 -0.011655793
000340 81 41 73 bd 40 53 25 3d 46 15 ca bd 56 20 23 3c
       -0.05938864 0.040362597 -0.09867339 0.00995644
000350 a8 96 c3 3d 6c a3 f9 bd de 69 dd 3c 5c f2 d5 3d
       0.0955022 -0.121893734 0.02702802 0.10446617
000360 9e 3d d3 3d 0d 31 8d bd d6 1b 6b 3c 0b 46 e3 bd
       0.10314487 -0.06894121 0.014349898 -0.11097344
000370 20 9f 38 3c 8b b8 96 bd 8a 80 94 bd 11 49 d3 bd
       0.011268407 -0.073594175 -0.072510794 -0.10316671
000380 85 28 36 3c 85 7c fa 3d 37 a8 4a bd 9c 25 a0 bd
       0.011118059 0.122307815 -0.04947683 -0.078196734
000390 b8 e6 ac bc d7 1d cf bd 91 b5 e9 bd ff b8 a3 bd
       -0.021106109 -0.101131134 -0.11411584 -0.079942696
0003a0 83 3a 82 3a ce 06 c3 3d aa 54 9b 3d 1a 41 35 3d
       0.0009935651 0.09522782 0.07584508 0.04425154
0003b0 0a f4 76 3c 34 84 86 bd b1 f4 e9 bc f1 94 07 bd
       0.015072832 -0.065681845 -0.02855906 -0.033101026
0003c0 c3 f5 97 bd 96 61 09 bd c5 01 c4 bd a4 a3 ae ba
       -0.07419922 -0.03354033 -0.0957065 -0.0013323915
0003d0 e7 d2 9c 3d c9 d6 06 3e 19 1d 9c bd f7 f3 63 bd
       0.07657414 0.13167872 -0.076227374 -0.055652585
0003e0 7b bb e4 3d 35 ea 08 3c 2a 7b 74 bd 06 83 6c bd
       0.111685716 0.008356621 -0.05968777 -0.05774214
0003f0 2a 64 69 bc e6 27 e5 bb cb a1 f6 bc 15 43 d1 3d
       -0.014245072 -0.0069932817 -0.030106446 0.10217873

lip_lstm.bias_hh_l0 f4 [256]
000000 d1 35 8b bc 6e 2f d3 bd 72 fa b9 3d 7d f5 6a bd
       -0.016993435 -0.10311781 0.09080972 -0.057363022
000010 4c 1e 78 bd 78 f3 f8 bb 2a cd fb bc 39 51 4f 3d
       -0.06057577 -0.007597383 -0.030737478 0.05061457
000020 2b 35 67 3d 97 ce a6 3c 4a c5 47 3d 1e 0d b3 3b
       0.05644719 0.020362182 0.048772134 0.00546421
000030 04 3c 2f bd 4c 60 19 3d 7c c9 bb 3d 88 4b 97 bd
       -0.042781845 0.03744535 0.091692895 -0.07387453
000040 22 d1 b9 bd 9b 93 74 3d 5c 74 9d 3d fe 86 8b 3d
       -0.09073092 0.05971108 0.076882094 0.06812857
000050 ea b4 89 bd d1 54 ab 3c 87 33 de bd 8b 1b 77 bd
       -0.0672396 0.020914467 -0.10849672 -0.060329
000060 7a 61 97 bd a8 f5 ae 3d 52 01 fd 3b cd 5d 04 bd
       -0.07391639 0.08542949 0.0077211047 -0.032316018
000070 a7 31 b4 3d f4 a0 d5 bd 5c cf db bd 19 30 89 3d
       0.08798533 -0.1043109 -0.1073291 0.06698627
000080 d5 dd ea 3d 88 4a f6 bd 94 77 92 3d 46 3c a1 3d
       0.11468092 -0.120259345 0.07151714 0.07872824
000090 0c 7e 96 bc bc 9e ce bd 63 83 8a 3d e4 52 52 3c
       -0.01837065 -0.1008887 0.06763341 0.0128371455
0000a0 c7 6a 82 bd 58 28 b5 bd 90 10 4f 3d c1 6b 03 be
       -0.063680224 -0.088455856 0.050552905 -0.12834074
0000b0 7d 22 05 3e 20 08 63 3d 57 25 a7 3d 11 84 6f 3c
       0.13001437 0.05542767 0.08161419 0.014618889
0000c0 f3 b0 d3 bd 98 ff 94 3d 0b f2 a0 3d 62 0d 73 bd
       -0.10336485 0.07275313 0.07858666 -0.059338935
0000d0 5e 8f 90 bc e7 98 59 3d 47 d7 df 3d dc ec eb bc
       -0.017646488 0.053124335 0.10929733 -0.028799467
0000e0 ec a6 e9 3d 0b d1 5a 3d f1 00 94 bd d5 67 a9 bd
       0.11408791 0.053422015 -0.07226742 -0.082717575
0000f0 65 cc cb bd 66 b3 fa 3c 6a 0d 56 bd 19 12 0e 3e
       -0.099510945 0.030603122 -0.052258886 0.13874091
000100 9f 35 b1 3d e1 8f 3f 3d 45 e5 11 bc 4a de 04 be
       0.086528055 0.046768073 -0.00890476 -0.12975422
000110 5a 10 91 bc 91 6e 95 bd c6 df f2 bd 4d 62 1a 3e
       -0.017707992 -0.072964795 -0.11859088 0.15076561
000120 6c 08 9b bd 76 cd c6 3c 7f c2 09 bd 29 b4 a3 3c
       -0.07569966 0.024267893 -0.03363275 0.019983368
000130 5e a9 0d bd 47 2f b1 bd 7d c9 5c 3c d4 e2 02 3e
       -0.03458535 -0.086515956 0.013475773 0.1278184
000140 10 f9 fb 3d 3e e6 bf 3a 1d a2 22 3d 1c c4 8f 3d
       0.12303364 0.0014640761 0.039705385 0.07019827
000150 74 6c 88 3a 7e 0d f4 bd c7 b2 be 3d 96 49 19 bd
       0.0010408298 -0.11916636 0.09311443 -0.037423693
000160 32 9c ce 3c 65 8d b3 3c 10 0d f2 3d 5f 32 bd 3d
       0.025220964 0.021918008 0.11818898 0.09238123
000170 5c 89 46 bd 92 0e 03 3e 9f 3a 43 3d 0d 72 80 bd
       -0.04847084 0.12798527 0.047663327 -0.062717535
000180 1e 77 cf bd 6a 1e 60 bd 54 90 30 3e 87 61 47 3b
       -0.10130142 -0.054716505 0.17242557 0.003042312
000190 e5 0a be 3d aa b9 c5 3c 27 3e 85 bd 99 48 0e bc
       0.09279422 0.024136383 -0.06505995 -0.008684301
0001a0 8e a7 86 bd 61 0a 20 bd 3e 41 91 bd 36 f7 aa bd
       -0.06574927 -0.039072398 -0.07092522 -0.08347933
0001b0 35 07 c0 3d 09 87 af bd 81 a5 94 bb ef e0 21 bd
       0.09376375 -0.08570678 -0.004536331 -0.039521154
0001c0 e0 13 ca bd 30 1d 2a 3d 7c 62 bd bd 63 2f f4 3d
       -0.09867072 0.04153174 -0.092473 0.11923101
0001d0 fd 30 f8 3d ef f3 62 3d 80 df ef 3c 58 6c b7 3d
       0.12118719 0.055408414 0.029281378 0.08956212
0001e0 da 0d 34 3d 8d c0 05 3e 3e 41 af 3d 45 9f 5a 3d
       0.043958522 0.13061734 0.08557366 0.053374548
0001f0 ff 80 b8 3c 8c 7a ab 3d 36 77 d9 3d 7d 06 fc bc
       0.022522448 0.08372983 0.10618441 -0.030764813
000200 72 bd f2 bd 8b 14 cc 3c 3a d7 33 3c df b6 17 3d
       -0.1185254 0.02491214 0.010976607 0.037039634
000210 cb b0 1d 3d 43 b3 cc 3d 3e e0 40 3d f1 df c5 3d
       0.03849868 0.09995129 0.047088854 0.09661854
000220 cc 88 dc bd 27 8d bf 3c 50 b7 8d bd 10 b0 0b bd
       -0.107682794 0.023382736 -0.0691973 -0.034103453
000230 75 24 18 bd 4a ef 94 3c 92 be e6 bb e9 a7 9d bb
       -0.037144143 0.018180508 -0.0070417607 -0.004811276
000240 d3 56 59 3d da 81 6a 3d 79 32 ca 3d 72 50 d5 bb
       0.053061318 0.057252742 0.09872908 -0.006509834
000250 08 3a a1 3c 17 69 e5 bd 6e b1 da bd b8 97 77 bd
       0.019680992 -0.11201685 -0.10678373 -0.060447425
000260 2b 61 6c bd e9 04 d0 3d 78 ec a7 bb d9 48 c0 3d
       -0.057709854 0.101571865 -0.005124625 0.093888946
000270 e6 a4 87 3d 3e a1 8e bd 3e f4 e2 bd 70 73 72 bb
       0.06623249 -0.06964348 -0.11081742 -0.0036995076
000280 f8 67 05 be 14 8f 54 bd 8c 9a 07 bd fc 6d 89 3d
       -0.13027942 -0.051894262 -0.03310637 0.06710431
000290 4f de 05 be 0c c4 9f 3c 94 54 f3 3d 2f 67 75 bd
       -0.13073085 0.019502662 0.11881366 -0.059912857
0002a0 7f 34 f5 bd c9 25 9d 3c e3 e9 fb bc ad 12 cb bd
       -0.119729035 0.019183056 -0.030751174 -0.099156715
0002b0 59 5f 78 3d fa 8e c0 3c 6e 84 5b bd ea c7 da 3d
       0.060637806 0.023505677 -0.05359309 0.10682662
0002c0 12 10 e3 bd 97 e0 f8 bd 06 57 ef bd 24 9b d1 bc
       -0.110870495 -0.12152212 -0.1168652 -0.025586672
0002d0 ba 05 df bd a1 54 cd 3d 43 26 2a 3d 98 78 a0 3d
       -0.10889764 0.10025907 0.041540395 0.078355014
0002e0 e1 c8 a2 bd 63 5e 2c 3d 2a 1c b5 3c d3 75 3b 3d
       -0.07948471 0.0420822 0.022108156 0.045766663
0002f0 4c 4c db bd 98 55 25 3d e5 69 a1 bd 6e a1 97 bd
       -0.10707912 0.04036483 -0.07881526 -0.07403837
000300 ab fc ab 3c 27 31 71 3d 2e b1 a5 3d 29 22 d5 3d
       0.020994505 0.058884766 0.08090435 0.10406906
000310 85 85 c0 3d 63 60 8c bd e2 12 ba bd 52 06 7e bd
       0.09400467 -0.06854322 -0.09085633 -0.062017746
000320 b8 49 86 3d 61 16 cb 3d 4c bd b9 bd b5 56 9d 3d
       0.065570295 0.09916378 -0.09069309 0.07682554
000330 23 cf b6 bd 1b 26 88 3c 42 d0 17 bc a2 fa d3 3d
       -0.08926227 0.016619733 -0.009265961 0.10350539
000340 c4 47 05 3e 7a a2 84 3d 3a bf ac bd 17 58 cb 3d
       0.13015658 0.064763024 -0.08434911 0.09928911
000350 2e ec bc 3d 18 2e 05 bd e4 9f e8 3d c3 2d 3a 3b
       0.09224735 -0.03251466 0.11358622 0.0028408624
000360 57 76 3f 3d d1 d7 d4 3d bd 61 ab 3d 83 ae e3 3d
       0.046743717 0.10392726 0.083682515 0.1111727
000370 6a d2 ec 3d d0 ca 02 3d 50 10 6a 3d 57 20 f3 bd
       0.11563571 0.0319317 0.057144463 -0.11871403
000380 de 31 94 3d 2f ea bc 3c 55 57 02 3e e1 3c 6a 3b
       0.07236074 0.023060886 0.12728627 0.0035741853
000390 11 c8 11 bd 5c c2 26 bc 2d fd b8 bd a7 30 01 bc
       -0.03559119 -0.010178175 -0.090326644 -0.007885135
0003a0 fb 33 74 3d 46 4f d4 3d ae 5e 91 3d 2d 4e a7 bd
       0.059619885 0.10366683 0.07098137 -0.08169208
0003b0 6c 17 69 bd 9f 2a 00 bd 6e e5 f1 3d c3 4f ef 3d
       -0.056907102 -0.031290647 0.11811338 0.11685135
0003c0 22 77 46 bd ca 39 31 3d 71 e9 bf bc af a6 bb bd
       -0.048453458 0.043268003 -0.023426743 -0.09162652
0003d0 d1 00 00 bd 89 40 f7 3d 39 8a 3d bd 64 61 ee 3d
       -0.03125078 0.12072856 -0.046274398 0.116396695
0003e0 49 0d 36 bd c4 b2 22 3e 1b e6 e7 3d e1 1a b7 bd
       -0.044446263 0.15888506 0.11323186 -0.089406736
0003f0 0a 15 b8 bd 76 fb dd 3c 7d ad 67 bb 98 b5 d3 bb
       -0.08988388 0.027097445 -0.003535121 -0.0064608566

audio_lstm.weight_ih_l0 f4 [256, 13]
000000 71 5d cb bd 42 66 28 bc 1e ac 7b 3d 59 1e 2b bc
       -0.09929932 -0.010278286 0.06144344 -0.010444247
000010 89 54 b9 39 2f 24 c7 bd 56 12 9c 3d ec 97 e7 bd
       0.00035348933 -0.09723698 0.07620685 -0.11308274
000020 e4 47 d0 bc 1d 5b ae bb 3a 94 da 3d 8e 51 28 3d
       -0.025424905 -0.00532092 0.10672803 0.0410934
000030 ae 10 6b 3d 57 63 c8 bb c0 12 62 3c dc 0e 4f bd
       0.057388954 -0.006115358 0.013798416 -0.05055128
000040 cd d8 ff bd e3 e4 71 bd e4 bf 1b 3e 51 4d 2c 3d
       -0.12492523 -0.059056174 0.15209919 0.042065922
000050 2f 8d 85 3c e2 55 45 3d d6 d1 14 3e cb 65 c8 bc
       0.016302673 0.048177607 0.14533171 -0.024462601
000060 41 f0 e1 3c de ce 1f 3e d0 be b8 3c e3 6f 3b bd
       0.027580382 0.15606257 0.022551924 -0.045761
000070 04 56 11 bd d6 6e b2 3d 6b 0b 03 be 2a e2 f7 3c
       -0.03548242 0.087125465 -0.12797324 0.03025921
000080 c6 55 27 3c 04 60 04 be a3 ff a9 3d 83 80 11 be
       0.010213321 -0.12927252 0.08300712 -0.1420918
000090 53 fa c8 3d 06 fc 16 3d 05 9a 7e bd 2d 5c ed 3c
       0.098133706 0.036861442 -0.062158603 0.028974617
0000a0 86 b6 95 3d 94 28 cc bd 41 d3 59 3d 6e 10 1a 3d
       0.07310204 -0.09968677 0.053179983 0.037613325
0000b0 9f 6c c8 3d 77 d3 e5 bd 8f 87 13 3c ff 39 14 bd
       0.09786343 -0.11221974 0.009004488 -0.036188122
0000c0 aa 51 33 bd 97 02 ce 3d 5d 1b 35 3d 26 a1 01 3e
       -0.043779053 0.10059088 0.04421555 0.1265913
0000d0 eb c7 8d 3d 7e 4c 94 3d ad 39 9e bd 88 12 90 3c
       0.06922897 0.07241152 -0.077258445 0.017586961
0000e0 b9 d3 86 bd 5e 4a c8 bc da 22 9d 3d 37 20 64 bd
       -0.06583352 -0.024449524 0.07672663 -0.055694785
0000f0 71 0a 02 bd 48 07 59 3d 55 63 ce bc bb 8f 0b bd
       -0.03174824 0.05298546 -0.02519385 -0.03407262
000100 2f 55 5e be e8 48 b1 3d 4a 86 ff 3d c7 ad 18 bb
       -0.21712182 0.08656484 0.124767855 -0.0023296939
000110 80 85 99 3d ec 53 0f 3e 64 94 6b 3d 67 3c a3 bd
       0.07496166 0.13996857 0.057514563 -0.07970505
000120 0c 48 9e 3c e6 00 ff 3d 1a f8 cf 3d b9 41 7e 3d
       0.019321464 0.12451343 0.101547435 0.062074397
000130 e0 86 68 3d 69 2d 66 3d 4c 10 e4 bd 2c a3 b7 bd
       0.05676925 0.05619565 -0.11135921 -0.089666694
000140 bd 76 0e 3d 33 a7 45 bd 35 26 cd 3d b8 cd 26 bc
       0.034781206 -0.048255157 0.10017053 -0.010180883
000150 20 49 ee bd 6f 07 18 3d 0a 89 7b bd 10 70 6c bd
       -0.11635041 0.037116464 -0.061409988 -0.05772406
000160 01 2c 87 bd 5a 71 c9 bd 81 4e 11 3c 90 8a b0 bd
       -0.0660019 -0.09836073 0.008868814 -0.08620179
000170 58 2f 95 bd 0e ba c2 3b fb 01 3d bd 48 8c 99 3d
       -0.07284421 0.0059425896 -0.046144467 0.0749746
000180 51 29 90 3d a1 9b 35 3d 1a 2b 35 3d dd 9c ee 3d
       0.070391305 0.044337872 0.044230558 0.11651013
000190 4a 4b 87 3c ae 75 d0 bc 11 37 8f bd 26 ac e8 3c
       0.016515393 -0.025446739 -0.06992925 0.0284024
0001a0 87 6f d3 bd 60 cb ee bb 38 93 0d 3e 35 c2 eb bd
       -0.103240065 -0.007287428 0.13825691 -0.115116514
0001b0 cd 83 9a bd 24 a4 04 3e 06 87 9e bc e1 2b 51 3d
       -0.0754467 0.1295324 -0.019351494 0.051067237
0001c0 41 8c cb 3a 4e 4b e1 bd 69 87 b7 3c b4 01 85 bd
       0.001552947 -0.11000691 0.022403436 -0.064944655
0001d0 41 61 14 be d2 ac 6d bc a4 04 97 3d 45 e3 9c bd
       -0.14490224 -0.014506536 0.07373932 -0.07660536
0001e0 a9 d7 e5 3d d5 71 a5 bc 57 b3 a0 3c dd 74 bf 3d
       0.112227745 -0.02019588 0.019616766 0.09348462
0001f0 ef df c3 bd 9a d5 74 3c 2b 5b 9b 3c bb 2a d8 3c
       -0.09564196 0.014943505 0.01896437 0.026387563
000200 57 f7 77 bc 28 b9 c4 bb 6c cf 7c 3d f4 c7 4a bd
       -0.015134654 -0.0060035177 0.06172125 -0.049507096
000210 98 b3 e5 bd 00 c0 f5 bc 00 d7 88 3d 48 7a 3a bd
       -0.112158954 -0.02999878 0.06681633 -0.045526773
000220 50 4a 66 bc 40 23 8c 3c 7f 5e 03 3b ba 9d d0 3d
       -0.014055803 0.017106652 0.0020045338 0.10186334
000230 b2 47 c5 3d 2c 55 4a 3d 70 a1 ca bd 85 d0 8e ba
       0.096328154 0.049397632 -0.09894073 -0.0010895884
000240 c1 e2 66 bd 78 2c b8 3c 1f a5 e0 3d 57 2d c2 3d
       -0.056368593 0.022482142 0.10968994 0.09481304
000250 98 ac fc bc a7 92 7d bd a9 3b a1 bd 32 5b 33 3e
       -0.030844018 -0.061907437 -0.078727074 0.17515257
000260 4f f6 00 3c af c6 ee bd a6 b8 97 3d b0 a4 80 3b
       0.007871225 -0.1165899 0.07408266 0.0039258823
000270 ee 6a c1 3d 97 1c 9d 3d c1 ca 65 3d 40 c6 61 bd
       0.09444223 0.07671469 0.056101564 -0.055120707
000280 03 12 0b be db f7 97 bd 06 79 04 be e0 1d 09 be
       -0.1358109 -0.074203216 -0.12936792 -0.13390303
000290 d9 0e d7 bd 40 45 71 3d 02 2f 29 3b b1 a4 0c 3d
       -0.10500879 0.058903933 0.0025815372 0.03433675
0002a0 d4 a7 16 bd da 4a dc 3d 1d e1 a9 bd b5 bc d3 bb
       -0.036781147 0.10756464 -0.0829489 -0.0064617046
0002b0 77 17 4c bd 3d 50 65 3d a2 74 97 3d d0 c5 5a 3d
       -0.049827065 0.055984724 0.07395293 0.053411305
0002c0 9c 42 d8 bd 57 49 e2 bd 10 75 fe bc b3 9d 44 bd
       -0.1055958 -0.11049145 -0.03106168 -0.048001956
0002d0 ee 5b e9 bd 33 7e 77 3d 9a f0 ae bd 1e 30 8d 3d
       -0.11394487 0.060423087 -0.08541985 0.06893943
0002e0 88 d2 7e bd 89 6c 02 bd d8 10 ad 3c 48 c8 8d 3d
       -0.062212497 -0.03184179 0.021126196 0.06922966
0002f0 66 79 fc bd 28 a4 16 bd c0 ad 50 bc e8 39 a1 3c
       -0.123278424 -0.036777645 -0.012736738 0.019680932
000300 d8 02 8d bd 0e 85 bb 3d da 55 ba bd d6 87 fa 3d
       -0.06885308 0.091562375 -0.09098406 0.1223294
000310 f0 17 f3 3d e7 dc ec 3d 0d f2 42 3d 35 70 3f 3d
       0.118698 0.11565571 0.04759412 0.04673787
000320 fa d2 ee bc 28 b7 15 bd d4 3a b2 3d 37 4a a1 bd
       -0.029153336 -0.036551625 0.08702627 -0.078754835
000330 9a ac 42 bd 13 0e 7c bd ca c9 0c 3e 9a f3 d2 3d
       -0.047527887 -0.06153686 0.13748851 0.103003696
000340 c4 4c 88 bd 6b 70 fd bd 58 32 c0 3d 6d ba d9 3c
       -0.06655267 -0.12374958 0.09384602 0.026578153
000350 52 a0 30 be 62 00 9a bb 93 86 37 3d ff d7 07 3e
       -0.17248657 -0.0046997527 0.044806074 0.1326599
000360 8c 59 07 3e ff 34 69 3d 91 ff d2 bc 84 27 d5 bd
       0.13217753 0.056935307 -0.02575663 -0.10407928
000370 ee de d8 bc fa d2 b0 bc f2 04 73 bb 15 07 a5 3b
       -0.026473489 -0.021584976 -0.0037081805 0.0050362446
000380 e8 e8 8c bd ca cd d0 bd ce 64 cb 3d f2 c6 30 bd
       -0.06880361 -0.10195501 0.09931336 -0.04315848
000390 9b 5a 9d 3d 70 13 74 bc f4 78 d6 bd f9 0e 24 bd
       0.07683297 -0.014897212 -0.10472289 -0.04005334
0003a0 62 8d 1f bd 1e b9 d3 3a 7b 7e d9 3d 5b 4e 94 3d
       -0.038953193 0.0016153192 0.10619827 0.072415076
0003b0 f9 d6 86 3c 28 47 e0 bc c3 31 15 be 64 df df bd
       0.016459929 -0.02737768 -0.14569764 -0.1093128
0003c0 78 68 05 be 8a ac e4 bd ec 01 ec bd 1c a4 4e 3c
       -0.13028133 -0.11165722 -0.11523804 0.012612369
0003d0 d5 26 aa bd 57 24 40 bc 0c f4 aa bd cf a9 9f 3c
       -0.08308188 -0.011727414 -0.083473295 0.01949015
0003e0 78 d4 03 3e 69 22 2f bc 4f 89 8e bc b6 f6 13 be
       0.12874019 -0.010689356 -0.017399458 -0.14449582
0003f0 6c 36 d4 bd 3b a0 63 3d 3a 6f 60 3d 65 9f 05 be
       -0.10361943 0.05557273 0.054793574 -0.13049085

audio_lstm.weight_hh_l0 f4 [256, 64]
000000 2a 8d a8 3d 8c cf f0 bd 2c 96 87 3d 29 2f 07 3e
       0.0823005 -0.117583364 0.0662044 0.13201584
000010 0e 66 9d bd 62 5a 96 3c 4c 6a 93 3d 43 fd eb bc
       -0.07685481 0.018353645 0.07198009 -0.028807288
000020 96 e3 30 bd 82 5c ad 3d 68 d2 cb 3d 2b 61 58 bc
       -0.043185793 0.0846491 0.09952241 -0.01320676
000030 c7 b0 11 3d dc 1d 4c bd d7 c8 8f 3b 99 c2 16 3d
       0.03556898 -0.049833164 0.0043879556 0.036806677
000040 dd 47 ab 3d 05 a4 83 bd 0e 35 28 be 0d 8c d5 3d
       0.08363316 -0.064277686 -0.16426489 0.10427103
000050 e2 93 e0 bd 14 ac 7a bd 6e a3 6c 3d eb d9 00 be
       -0.109657064 -0.061199263 0.057773046 -0.12583129
000060 f5 4b 01 be e6 c4 18 3d a0 91 f6 bc 9e e8 2e 3d
       -0.12626632 0.037297152 -0.030098736 0.04270231
000070 1d 4a 0f be a0 70 b5 bb 85 68 33 ba 18 bc da 3d
       -0.13993116 -0.0055371076 -0.0006843883 0.10680407
000080 4c 30 51 bc b0 6c bc bd 6a f0 be bd 0e 3f 88 bb
       -0.0127678625 -0.09200418 -0.09323199 -0.0041579073
000090 14 d1 01 bd 80 57 9a 3d 82 70 a1 bd c4 4c a2 bd
       -0.031693533 0.075362206 -0.07882787 -0.07924798
0000a0 bb e9 31 3c ee 57 a9 3d 39 91 7b 3d 1c 9e 04 3d
       0.010858948 0.082687244 0.061417792 0.032377347
0000b0 a8 ce 9c bd 63 c7 20 bd 6d bf 8d bc 5d 44 93 3c
       -0.07656604 -0.03925265 -0.017303193 0.017976934
0000c0 b2 0f 89 3d 32 0c 0a bd 8e 02 14 3d 3a c6 ad bd
       0.06692447 -0.033703037 0.03613525 -0.08485074
0000d0 d7 e2 0f 3e 81 9d b5 3d 9b 15 0b be bc 7f ab 3d
       0.14051376 0.08867932 -0.1358246 0.08373973
0000e0 c4 37 f8 bc 74 2a 5c 3d b0 c1 2b 3d e9 a3 01 be
       -0.030300029 0.053751424 0.04193276 -0.12660183
0000f0 63 92 cd 3d e1 75 ec bd 59 ba ed bd ba 9e 24 3d
       0.10037687 -0.11545921 -0.116078086 0.040190436
000100 e5 ec 23 3e 40 1b b0 3d aa b8 a9 bd c3 69 84 bd
       0.16008337 0.085989475 -0.08287175 -0.06465485
000110 e8 83 1c be 00 cf 96 bb 40 92 90 3a 58 e6 39 bd
       -0.15284693 -0.004602313 0.0011029914 -0.04538569
000120 0e 9a 06 bc 6a c2 7e 3d f0 36 94 3d 9a 7b 80 bc
       -0.00821544 0.062197126 0.07237041 -0.015683938
000130 8a 88 f3 bd e2 8b dd 3d 20 ae 19 bd d3 fb f2 bc
       -0.11891277 0.10817696 -0.037519574 -0.029661095
000140 9d 09 b5 3d a4 cd 2c 3d ba 20 b6 bd 5b c9 af bc
       0.08839724 0.0421883 -0.08892961 -0.021458318
000150 ac e8 75 bd 8e 4a ab bd 99 92 2f bc bc e3 c9 bd
       -0.060036346 -0.083638296 -0.010716104 -0.0985789
000160 64 9b ea bd 0f 3b 84 3d c0 ef 47 3d 5a e0 d5 3c
       -0.1145542 0.06456577 0.048812628 0.026107956
000170 37 2a 22 be 67 3a 85 3b 7a b1 e5 3c ec e9 7c bd
       -0.15836416 0.0040658 0.028038729 -0.061746523
000180 33 cf b7 bd 2b 91 e0 bd 2f 69 f2 bc 84 6f 21 3d
       -0.08975067 -0.109651886 -0.029591171 0.03941299
000190 52 5f 2f bd 9f 10 31 be d0 1d 33 bc 24 9b db 3d
       -0.042815514 -0.17291497 -0.010932401 0.1072295
0001a0 53 8a 39 3d 20 bd 15 3c f3 c1 c5 bc 04 ce d6 3d
       0.045297932 0.009139329 -0.024140334 0.10488513
0001b0 51 b3 60 bc 55 dc 42 bd 2f ed 66 bd c9 c5 95 bd
       -0.013714627 -0.047573406 -0.05637854 -0.07313115
0001c0 be 67 19 be ce b6 b6 3d f1 7a 4e bd 76 8d c6 bb
       -0.14980981 0.08921586 -0.050410215 -0.006059344
0001d0 74 81 da 3d ae db 5b bd c0 15 c8 bb 34 6e 4d bd
       0.106692225 -0.0536763 -0.0061061084 -0.050153926
0001e0 a4 48 fd 3c f3 08 4e bc b2 1d 45 3d cc f2 00 3d
       0.030918427 -0.012575376 0.048124023 0.03148155
0001f0 82 35 06 bd d1 2c 46 bd f6 2f 38 3d 0f 2b 8c bd
       -0.032765873 -0.048382584 0.044967614 -0.0684415
000200 48 97 f7 bc bf 47 a5 3c 3b 5a af 3d 18 e5 0b 3e
       -0.030223504 0.020175813 0.08562132 0.13661611
000210 80 93 40 bb 71 42 e1 bc 24 a2 91 3b 35 08 cd 3c
       -0.0029384792 -0.027497502 0.0044443775 0.025028327
000220 44 c0 10 3d 03 94 80 bd 80 00 57 bd 3c cc bd 3c
       0.03533961 -0.06278231 -0.05249071 0.023168676
000230 8f 14 0a 3e e0 f3 87 bd 33 8a 6a bc e1 86 c5 bd
       0.13484405 -0.06638312 -0.014315176 -0.09644867
000240 04 85 df bd a8 02 aa bc 58 7e 62 bd e7 c8 fe 3d
       -0.109140426 -0.02075322 -0.055296272 0.12440663
000250 cb 70 93 3d e4 f8 60 bd 1d de 0a bc b3 94 73 bd
       0.07199248 -0.05492486 -0.0084758075 -0.059467983
000260 e8 7c 6d 3c a7 a8 ba bd 68 f0 41 bd bf 49 cd bd
       0.014495112 -0.09114199 -0.04734841 -0.100238316
000270 e3 fc 5f bd 6c 11 14 bd 84 ce 16 be 8a 3c 83 bd
       -0.05468453 -0.036149427 -0.14727217 -0.06408031
000280 be be d1 bd 6a f0 0a 3d 59 3e df 3d 4a 9b df bd
       -0.10241459 0.033920683 0.10900564 -0.10918291
000290 68 43 8f 3d 0a d5 f5 bd fe 3a a7 bd 36 fe 89 bd
       0.069952786 -0.120035246 -0.08165549 -0.0673794
0002a0 44 68 e3 3b 0b 56 1e bd 24 06 03 3e 25 f7 00 bd
       0.0069399197 -0.038656276 0.12795311 -0.031485695
0002b0 70 1c 50 bd 95 1f bc 3b 1c 8e 50 3d 75 b5 3d 3d
       -0.05080837 0.0057410696 0.050916776 0.04631563
0002c0 36 50 ba bb 22 2e 07 be 42 6b 11 3e dd 9d c3 bb
       -0.0056858314 -0.13201192 0.14201072 -0.0059697465
0002d0 89 a0 36 bd 3a 77 eb 3c 77 86 9d bc 34 4e d4 3c
       -0.044586692 0.028743375 -0.019229157 0.025916196
0002e0 02 4e 9f bd 61 ed 00 bd f1 a8 08 bd 8c b7 fc bc
       -0.07778551 -0.031476382 -0.03336424 -0.03084924
0002f0 90 aa 05 bd 85 56 ba bc 39 d6 5c bd b6 c6 a8 bd
       -0.032633364 -0.022746334 -0.053915236 -0.08241026
000300 c4 26 4c bd 38 65 dc 3d d8 a2 b8 bc 23 80 9a bd
       -0.049841657 0.107614934 -0.022538587 -0.075439714
000310 ae f2 eb 3c 8e f2 b9 3d 6c c1 4d 3d 9b 33 6b 3b
       0.028802242 0.09079467 0.05023329 0.0035888914
000320 9a 9d e1 3c 69 08 4c bd 6c 74 67 bd f1 a8 0c 3e
       0.02754097 -0.049812708 -0.056507513 0.13736321
000330 0d 05 21 3d 80 a0 c6 ba 1c 9c f4 3d 38 21 03 be
       0.039311457 -0.0015154034 0.11943838 -0.1280564
000340 e5 87 c8 3d 67 b7 02 3d 22 c3 1b be f5 97 24 3c
       0.09791545 0.031913187 -0.15211156 0.010045995
000350 57 0f 07 3e a2 69 8d bd b9 7e 81 bd e3 d6 b9 3d
       0.13189445 -0.069049135 -0.063229986 0.090741895
000360 99 c0 8a bd 48 88 97 bd 60 e4 67 3d ce 8c 34 3d
       -0.06775016 -0.073990405 0.05661428 0.044079594
000370 cc d0 08 3d 2e 7a ab bd 8b 6a 76 bd 00 d7 23 3c
       0.03340225 -0.08372913 -0.0601602 0.00999999
000380 57 da c1 3d 70 dd 2e 3e 21 25 08 be 20 bd a5 3d
       0.09465473 0.17076659 -0.13295414 0.08092713
000390 48 b1 4e be 94 b0 10 3e 57 80 3f bd fc 44 f9 3d
       -0.20184815 0.14129859 -0.046753254 0.12171361
0003a0 76 40 cf 3d 6d 6a 7c bd dc 62 3c bd 06 bd f9 bd
       0.10119717 -0.061624933 -0.045992717 -0.121942565
0003b0 5a 26 bf 3d e4 84 f3 3d a8 7f af bd 8c e7 22 bd
       0.09333487 0.11890581 -0.0856927 -0.0397716
0003c0 a0 19 0d be 1e 48 30 bd b9 3b 9a 3d 42 c9 c9 3c
       -0.13779306 -0.043037526 0.075309224 0.0246321
0003d0 1d a0 ff 3d bf 9b f7 bc 38 9c c8 bd 1d 8a c1 3c
       0.12481711 -0.030225633 -0.09795421 0.023625428
0003e0 cd 0c b7 3d 82 ee 9a 3b 05 fe 08 be 91 a5 4d bc
       0.089379884 0.0047281394 -0.13378151 -0.012551681
0003f0 9f eb f2 bd c4 c0 bb 3c 12 35 c4 bd 8d 5f 71 3d
       -0.118613474 0.022919066 -0.09580435 0.058929015

audio_lstm.bias_ih_l0 f4 [256]
000000 dd 49 8e 3d 54 4c 91 3c fc 75 e9 3d 69 00 b7 3c
       0.06947682 0.017736591 0.11399457 0.022339063
000010 09 ef 9b bd 20 5c d8 bd 6b 2c ff 3d 30 04 10 3c
       -0.07613952 -0.105644464 0.12459644 0.008790061
000020 e4 e4 d1 3c 31 77 6e 3d 68 82 84 bd e9 97 d1 3d
       0.025621839 0.05821914 -0.064701855 0.10234053
000030 b7 cc f4 3d 74 39 1a 3d 40 70 c8 3b 59 46 1f bd
       0.11953109 0.037652448 0.006116897 -0.038885448
000040 ce 7a 79 3c dd 11 e4 3c 6c aa 1f 3c 1e 3b 58 bd
       0.015227033 0.02784055 0.009745222 -0.052790754
000050 5e 3c 87 3d 1a b5 80 3d d5 4a e7 bd a6 c0 08 3c
       0.06603311 0.062845424 -0.1129357 0.008346712
000060 98 c4 3c 3d fb 62 14 3d d0 16 d6 bd 71 fd c1 3b
       0.046085924 0.036227208 -0.1045357 0.005920105
000070 41 46 8f 3d 68 20 d5 3c 05 a6 93 bd c0 a3 10 bb
       0.06995822 0.026016429 -0.072094 -0.002207026
000080 a4 55 08 bc e2 fb 6f bd d4 36 04 be 32 2b 83 bd
       -0.0083212 -0.058589824 -0.1291154 -0.06404723
000090 ab 50 86 3d 6a ca 56 3d 98 c0 7c bd 1b 4d e8 bd
       0.06558355 0.05243913 -0.06170711 -0.11342832
0000a0 de 38 95 bd 7d 46 e5 bd 1c d6 af bd 01 93 4e 3d
       -0.07286237 -0.11195085 -0.0858576 0.050433163
0000b0 3f 8c 3c 3d 14 3e 03 be 60 0b 85 bd 9f 40 eb 3d
       0.046032187 -0.1281665 -0.0649631 0.11486935
0000c0 bc ca c7 3d 47 e3 de 3d 1e c6 d8 3d 03 85 ae bd
       0.097554654 0.108831935 0.10584663 -0.08521464
0000d0 da 02 4f 3c 7b 1e 86 bd 77 c6 73 3d 2e 54 36 3e
       0.012634957 -0.065487824 0.059515443 0.1780555
0000e0 21 31 ee 3d ec c6 86 bd 1f 9a 0e 3d ff f3 a3 3c
       0.11630464 -0.0658091 0.03481495 0.020013807
0000f0 56 9d 82 bc 4f 7c b3 bd d3 be 3e bd 95 4b 56 bd
       -0.015944164 -0.08763944 -0.046568703 -0.052318174
000100 74 3e 5f bb 9f 93 b7 3d f8 b8 21 3d 07 83 8d 3c
       -0.0034064325 0.08963703 0.03948304 0.017274393
000110 3e 55 c4 bd 80 7d 91 bc 72 0b f3 3d 27 85 f8 bc
       -0.09586571 -0.017760038 0.118674174 -0.03033693
000120 14 59 e2 bd 05 5f 67 bc 48 dc 57 bd 3b b4 52 bb
       -0.110521466 -0.0141217755 -0.05270031 -0.0032150883
000130 70 ec ea 3d a0 34 c7 bb 11 8e ef bd 78 e8 03 bd
       0.11470878 -0.0060792714 -0.11697019 -0.03220412
000140 a8 51 9f bc 4e d6 26 bd 9b 5c af 3d 99 84 d0 bc
       -0.019448116 -0.04073172 0.08562585 -0.025453852
000150 84 ae cf 3d 4c 3d b6 bd 04 f3 df 3d c1 b6 e0 3d
       0.10140708 -0.0889841 0.109350234 0.109723575
000160 8f 1a 5d bd 44 1b 66 bd 6e 40 fc bd 7a c6 bd bd
       -0.053980406 -0.056178346 -0.123169765 -0.09266372
000170 e5 54 bd 3d 90 07 c0 bd d4 d2 6b 3d 3c 17 d1 3d
       0.09244708 -0.093764424 0.05757411 0.1020951
000180 b0 ad a1 bd fc e3 a5 3d 20 90 34 3c fc ca f7 bd
       -0.078944564 0.08100125 0.01102069 -0.12099263
000190 1c 58 3d 3d cf 07 79 bc 00 98 c0 3d 40 b4 41 bc
       0.046226606 -0.015199616 0.09403992 -0.01182276
0001a0 e5 50 a5 3d ac b9 35 bd ca e3 63 3d 34 b9 ed bd
       0.0807207 -0.044366524 0.05563716 -0.1160759
0001b0 68 62 23 bd 0d 9d f3 bc 87 42 ed 3d dc 80 86 bc
       -0.03988877 -0.029737974 0.11584955 -0.016418867
0001c0 2e a3 54 3c 7c ce 8c 3d 38 fa 55 3d e0 f9 3e 3d
       0.012978358 0.06875321 0.05224058 0.046625018
0001d0 38 d4 fe 3d 69 c8 ca bd 9b de b8 3d 5b 3e f2 3c
       0.12442821 -0.099015065 0.090268336 0.029570749
0001e0 2b 5e a8 3d c3 80 1f 3c 74 d6 7f bd e4 ec 8f bd
       0.08221086 0.009735289 -0.062460378 -0.07027605
0001f0 a2 29 97 bd 78 e2 11 be 7e 08 f9 39 08 8b 14 3d
       -0.07380988 -0.14246547 0.00047499308 0.036265403
000200 f6 99 26 3c 93 cb cb bc 20 2a 94 bc d8 e3 fb bc
       0.010168543 -0.024877345 -0.018086493 -0.030748293
000210 74 1e 79 3d ee 2e 46 bd 3f 1d 09 bc 2b 7f bf 3d
       0.060820058 -0.0483846 -0.008368789 0.09350427
000220 ec bd ac 3d b5 9c 4f 3d a2 9a a2 bd 59 44 8c bd
       0.08434662 0.050686557 -0.0793965 -0.06848974
000230 a5 b3 f4 bd 00 10 7d b8 65 0f e4 3d 73 6d 28 3d
       -0.11948327 -6.03348e-05 0.11135749 0.041120004
000240 20 1c ca bb 62 6f dd bd 1c a4 58 3c 72 93 d3 3d
       -0.0061679035 -0.1081226 0.0132227205 0.10330857
000250 cb 1c a1 bd 80 34 5b 3c 1a 5b 95 3d 01 a9 07 3e
       -0.0786682 0.013379216 0.07292767 0.13248064
000260 48 2f 94 bd fc cd 35 3d a2 d7 c1 bd b4 79 b6 bd
       -0.07235581 0.044385895 -0.09464957 -0.08909932
000270 98 77 cd 3d 74 d5 3b 3d 22 2a a0 bd 78 f0 97 bd
       0.10032576 0.04585786 -0.07820536 -0.07418913
000280 65 82 cb 3d cc b0 a5 bd d8 9e 71 3d 90 42 72 3c
       0.0993698 -0.08090362 0.058989376 0.014786378
000290 41 c6 42 bd 39 7a 64 bd c9 ad f3 3d 32 3a c4 bd
       -0.04755235 -0.055780623 0.11898381 -0.095814124
0002a0 a0 c1 d2 3c 15 38 a6 bd 07 47 61 bd 04 b9 fa bd
       0.025727093 -0.081161655 -0.054999378 -0.1224232
0002b0 8b ea 9f 3d ea 0d 08 be e8 69 50 bd e8 dc b2 bc
       0.078084074 -0.13286558 -0.05088225 -0.021833852
0002c0 d8 53 32 3d e0 be 11 3c a5 6c 52 3d e5 4c 17 3d
       0.04353699 0.008895606 0.051373143 0.036938567
0002d0 22 24 fb bd 34 fd 77 3c 7f 60 97 bd 45 5e c2 bd
       -0.12262751 0.015136052 -0.07391452 -0.09490637
0002e0 5f fc e2 3d 35 9f dc 3d cd 88 2c 3c 50 64 8a 3c
       0.11083292 0.10772554 0.010530663 0.016893536
0002f0 48 b3 45 bd f4 88 9d 3d 2c e3 78 3c 74 2b 02 3e
       -0.04826668 0.07692137 0.015190881 0.12711889
000300 18 09 06 3d 24 8f 74 bb b7 56 bc 3d a6 12 ce bb
       0.032723516 -0.0037316764 0.09196227 -0.006288844
000310 0c 12 50 bd 77 9b 0f bd e0 da 55 bd 7c 0a 59 3d
       -0.05079846 -0.035060372 -0.05221069 0.052988514
000320 ae 99 90 3d b3 63 cc 3c e0 e0 90 bd 95 97 c4 bd
       0.07060562 0.024949884 -0.070741415 -0.095992245
000330 44 b3 75 3d 04 98 f1 3d a0 7b d5 3d 76 25 ff 3d
       0.059985414 0.11796573 0.1042397 0.12458317
000340 40 de 2c bd b1 35 96 3d 5b 8c 0b bd ed 5f b0 bd
       -0.04220414 0.073344596 -0.0340694 -0.086120464
000350 a5 51 c1 bd 80 89 a1 bc 22 b4 b9 bd 40 c3 10 bb
       -0.094394006 -0.019718885 -0.09067561 -0.0022089034
000360 1b 08 92 bd 7a 1b f5 3d 42 7d c6 3d a8 df 91 bd
       -0.07130452 0.11968131 0.0969186 -0.07122737
000370 bc e0 1a bd 0c 82 11 3d 5e 71 f1 3c 3e 3a b3 bd
       -0.03781198 0.035524413 0.029473003 -0.08751343
000380 7e 0c 14 bd 4d 3e 68 3d 6a f5 ea 3d 97 52 9c bd
       -0.036144726 0.05670004 0.1147259 -0.0763294
000390 37 2a 4d 3d d9 f1 4e bd d3 a5 e1 bd 4a a6 07 bd
       0.050089087 -0.050523613 -0.110179566 -0.03311757
0003a0 e7 a6 de 3d 13 48 91 3d 10 fc c4 bc 14 ce 8b bd
       0.10871678 0.07093825 -0.024045974 -0.06826416
0003b0 5d 9e 2f 3d 18 2c 0d 3d 0d 4c 47 3d 11 5b 9f 3d
       0.042875636 0.03446588 0.048656512 0.077810414
0003c0 f9 42 74 bd c0 46 a3 3d 1b d5 f7 bc 65 7e 07 be
       -0.059634183 0.07972479 -0.030252984 -0.1323181
0003d0 54 2f 5a 3d 80 e2 fe bd b9 35 b5 ba 3d ea 55 bd
       0.053267792 -0.12445545 -0.0013825215 -0.05222534
0003e0 06 24 7f bd 3a c9 d2 3d f0 3e 36 bd 97 87 3a bd
       -0.062290214 0.10292287 -0.044493616 -0.045539465
0003f0 f9 19 9b 3d f7 ba 56 3d ed de 1e bd 5f c5 d5 bd
       0.07573313 0.052424397 -0.038786817 -0.10438036
